…
I1028 18:21:47.192131 11865 solver.cpp:91] Creating training net from net file: /home/kashefy/models/sound/twoears/multi/xJ_brir/train_val_c_03_3-4.prototxt
I1028 18:21:47.195830 11865 net.cpp:322] The NetState phase (0) differed from the phase (1) specified by a rule in layer data
I1028 18:21:47.196854 11865 net.cpp:58] Initializing net from parameters: 
name: "SoundNet"
state {
  phase: TRAIN
  level: 0
  stage: ""
}
layer {
  name: "data"
  type: "HDF5Data"
  top: "ratemap"
  top: "ild"
  top: "label_id_loc"
  include {
    phase: TRAIN
  }
  hdf5_data_param {
    source: "/mnt/raid/data/ni/twoears/kashefy/brir/bal_900K/split_300/twoears_data_train_ord1.txt"
    batch_size: 512
  }
}
layer {
  name: "conv1_nidx_00_c_03_3"
  type: "Convolution"
  bottom: "ratemap"
  top: "conv1_nidx_00_c_03_3"
  param {
    lr_mult: 1
    decay_mult: 1
  }
  param {
    lr_mult: 2
    decay_mult: 0
  }
  convolution_param {
    num_output: 64
    stride: 1
    weight_filler {
      type: "xavier"
    }
    bias_filler {
      type: "constant"
    }
    kernel_h: 3
    kernel_w: 3
  }
}
layer {
  name: "relu_conv1_nidx_00_c_03_3"
  type: "ReLU"
  bottom: "conv1_nidx_00_c_03_3"
  top: "conv1_nidx_00_c_03_3"
}
layer {
  name: "pool1_nidx_00_c_03_3"
  type: "Pooling"
  bottom: "conv1_nidx_00_c_03_3"
  top: "pool1_nidx_00_c_03_3"
  pooling_param {
    pool: MAX
    kernel_size: 2
    stride: 2
  }
}
layer {
  name: "conv2_nidx_00_c_03_3"
  type: "Convolution"
  bottom: "pool1_nidx_00_c_03_3"
  top: "conv2_nidx_00_c_03_3"
  param {
    lr_mult: 1
    decay_mult: 1
  }
  param {
    lr_mult: 2
    decay_mult: 0
  }
  convolution_param {
    num_output: 128
    stride: 1
    weight_filler {
      type: "xavier"
    }
    bias_filler {
      type: "constant"
    }
    kernel_h: 3
    kernel_w: 3
  }
}
layer {
  name: "pool2_nidx_00_c_03_3"
  type: "Pooling"
  bottom: "conv2_nidx_00_c_03_3"
  top: "pool2_nidx_00_c_03_3"
  pooling_param {
    pool: MAX
    kernel_size: 2
    stride: 2
  }
}
layer {
  name: "relu_conv2_nidx_00_c_03_3"
  type: "ReLU"
  bottom: "pool2_nidx_00_c_03_3"
  top: "pool2_nidx_00_c_03_3"
}
layer {
  name: "conv3_nidx_00_c_03_3"
  type: "Convolution"
  bottom: "pool2_nidx_00_c_03_3"
  top: "conv3_nidx_00_c_03_3"
  param {
    lr_mult: 1
    decay_mult: 1
  }
  param {
    lr_mult: 2
    decay_mult: 0
  }
  convolution_param {
    num_output: 128
    stride: 1
    weight_filler {
      type: "xavier"
    }
    bias_filler {
      type: "constant"
    }
    kernel_h: 3
    kernel_w: 3
  }
}
layer {
  name: "relu_conv3_nidx_00_c_03_3"
  type: "ReLU"
  bottom: "conv3_nidx_00_c_03_3"
  top: "conv3_nidx_00_c_03_3"
}
layer {
  name: "conv1_ild_nidx_00_c_03_3"
  type: "Convolution"
  bottom: "ild"
  top: "conv1_ild_nidx_00_c_03_3"
  param {
    lr_mult: 1
    decay_mult: 1
  }
  param {
    lr_mult: 2
    decay_mult: 0
  }
  convolution_param {
    num_output: 64
    stride: 1
    weight_filler {
      type: "xavier"
    }
    bias_filler {
      type: "constant"
    }
    kernel_h: 3
    kernel_w: 3
  }
}
layer {
  name: "relu_ild_conv1_nidx_00_c_03_3"
  type: "ReLU"
  bottom: "conv1_ild_nidx_00_c_03_3"
  top: "conv1_ild_nidx_00_c_03_3"
}
layer {
  name: "pool1_ild_nidx_00_c_03_3"
  type: "Pooling"
  bottom: "conv1_ild_nidx_00_c_03_3"
  top: "pool1_ild_nidx_00_c_03_3"
  pooling_param {
    pool: MAX
    kernel_size: 2
    stride: 2
  }
}
layer {
  name: "conv2_ild_nidx_00_c_03_3"
  type: "Convolution"
  bottom: "pool1_ild_nidx_00_c_03_3"
  top: "conv2_ild_nidx_00_c_03_3"
  param {
    lr_mult: 1
    decay_mult: 1
  }
  param {
    lr_mult: 2
    decay_mult: 0
  }
  convolution_param {
    num_output: 128
    stride: 1
    weight_filler {
      type: "xavier"
    }
    bias_filler {
      type: "constant"
    }
    kernel_h: 3
    kernel_w: 3
  }
}
layer {
  name: "pool2_ild_nidx_00_c_03_3"
  type: "Pooling"
  bottom: "conv2_ild_nidx_00_c_03_3"
  top: "pool2_ild_nidx_00_c_03_3"
  pooling_param {
    pool: MAX
    kernel_size: 2
    stride: 2
  }
}
layer {
  name: "relu_ild_conv2_nidx_00_c_03_3"
  type: "ReLU"
  bottom: "pool2_ild_nidx_00_c_03_3"
  top: "pool2_ild_nidx_00_c_03_3"
}
layer {
  name: "conv3_ild_nidx_00_c_03_3"
  type: "Convolution"
  bottom: "pool2_ild_nidx_00_c_03_3"
  top: "conv3_ild_nidx_00_c_03_3"
  param {
    lr_mult: 1
    decay_mult: 1
  }
  param {
    lr_mult: 2
    decay_mult: 0
  }
  convolution_param {
    num_output: 128
    stride: 1
    weight_filler {
      type: "xavier"
    }
    bias_filler {
      type: "constant"
    }
    kernel_h: 3
    kernel_w: 3
  }
}
layer {
  name: "relu_ild_conv3_nidx_00_c_03_3"
  type: "ReLU"
  bottom: "conv3_ild_nidx_00_c_03_3"
  top: "conv3_ild_nidx_00_c_03_3"
}
layer {
  name: "ip2_rm_nidx_00_c_03_3"
  type: "InnerProduct"
  bottom: "conv3_nidx_00_c_03_3"
  top: "ip2_rm_nidx_00_c_03_3"
  param {
    lr_mult: 1
  }
  param {
    lr_mult: 2
  }
  inner_product_param {
    num_output: 128
    weight_filler {
      type: "xavier"
    }
    bias_filler {
      type: "constant"
    }
  }
}
layer {
  name: "ip2_ild_nidx_00_c_03_3"
  type: "InnerProduct"
  bottom: "conv3_ild_nidx_00_c_03_3"
  top: "ip2_ild_nidx_00_c_03_3"
  param {
    lr_mult: 1
  }
  param {
    lr_mult: 2
  }
  inner_product_param {
    num_output: 128
    weight_filler {
      type: "xavier"
    }
    bias_filler {
      type: "constant"
    }
  }
}
layer {
  name: "concat_nidx_00_c_03_3"
  type: "Concat"
  bottom: "ip2_rm_nidx_00_c_03_3"
  bottom: "ip2_ild_nidx_00_c_03_3"
  top: "ip2_nidx_00_c_03_3"
  concat_param {
    axis: 1
  }
}
layer {
  name: "relu_ip2_nidx_00_c_03_3"
  type: "ReLU"
  bottom: "ip2_nidx_00_c_03_3"
  top: "ip2_nidx_00_c_03_3"
}
layer {
  name: "dropip2_nidx_00_c_03_3"
  type: "Dropout"
  bottom: "ip2_nidx_00_c_03_3"
  top: "ip2_nidx_00_c_03_3"
  dropout_param {
    dropout_ratio: 0.5
  }
}
layer {
  name: "ip3_id_void_nidx_00_c_03_3"
  type: "InnerProduct"
  bottom: "ip2_nidx_00_c_03_3"
  top: "ip3_id_void_nidx_00_c_03_3"
  param {
    lr_mult: 1
  }
  param {
    lr_mult: 2
  }
  inner_product_param {
    num_output: 13
    weight_filler {
      type: "xavier"
    }
    bias_filler {
      type: "constant"
    }
  }
}
layer {
  name: "ip3_id_loc_nidx_00_c_03_3"
  type: "InnerProduct"
  bottom: "ip2_nidx_00_c_03_3"
  top: "ip3_id_loc_nidx_00_c_03_3"
  param {
    lr_mult: 1
  }
  param {
    lr_mult: 2
  }
  inner_product_param {
    num_output: 1092
    weight_filler {
      type: "xavier"
    }
    bias_filler {
      type: "constant"
    }
  }
}
layer {
  name: "reshape_nidx_00_c_03_3"
  type: "Reshape"
  bottom: "ip3_id_loc_nidx_00_c_03_3"
  top: "ip3_id_loc_reshaped_nidx_00_c_03_3"
  reshape_param {
    shape {
      dim: 0
      dim: 13
      dim: 1
      dim: -1
    }
  }
}
layer {
  name: "conv1_id_loc_nidx_00_c_03_3"
  type: "Convolution"
  bottom: "ip3_id_loc_reshaped_nidx_00_c_03_3"
  top: "conv1_id_loc_nidx_00_c_03_3"
  param {
    lr_mult: 1
    decay_mult: 1
  }
  param {
    lr_mult: 2
    decay_mult: 0
  }
  convolution_param {
    num_output: 13
    stride: 1
    weight_filler {
      type: "xavier"
    }
    bias_filler {
      type: "constant"
    }
    kernel_h: 1
    kernel_w: 5
  }
}
layer {
  name: "relu_conv1_id_loc_nidx_00_c_03_3"
  type: "ReLU"
  bottom: "conv1_id_loc_nidx_00_c_03_3"
  top: "conv1_id_loc_nidx_00_c_03_3"
}
layer {
  name: "conv2_id_loc_nidx_00_c_03_3"
  type: "Convolution"
  bottom: "conv1_id_loc_nidx_00_c_03_3"
  top: "conv2_id_loc_nidx_00_c_03_3"
  param {
    lr_mult: 1
    decay_mult: 1
  }
  param {
    lr_mult: 2
    decay_mult: 0
  }
  convolution_param {
    num_output: 13
    stride: 1
    weight_filler {
      type: "xavier"
    }
    bias_filler {
      type: "constant"
    }
    kernel_h: 1
    kernel_w: 5
  }
}
layer {
  name: "relu_conv2_id_loc_nidx_00_c_03_3"
  type: "ReLU"
  bottom: "conv2_id_loc_nidx_00_c_03_3"
  top: "conv2_id_loc_nidx_00_c_03_3"
}
layer {
  name: "conv3_id_loc_nidx_00_c_03_3"
  type: "Convolution"
  bottom: "conv2_id_loc_nidx_00_c_03_3"
  top: "conv3_id_loc_nidx_00_c_03_3"
  param {
    lr_mult: 1
    decay_mult: 1
  }
  param {
    lr_mult: 2
    decay_mult: 0
  }
  convolution_param {
    num_output: 13
    stride: 1
    weight_filler {
      type: "xavier"
    }
    bias_filler {
      type: "constant"
    }
    kernel_h: 1
    kernel_w: 5
  }
}
layer {
  name: "reshape_conv3_id_loc_nidx_00_c_03_3"
  type: "Reshape"
  bottom: "conv3_id_loc_nidx_00_c_03_3"
  top: "conv3_id_loc_reshaped_nidx_00_c_03_3"
  reshape_param {
    shape {
      dim: 0
      dim: 13
      dim: 1
      dim: 72
    }
  }
}
layer {
  name: "reshape_ip3_id_void_nidx_00_c_03_3"
  type: "Reshape"
  bottom: "ip3_id_void_nidx_00_c_03_3"
  top: "ip3_id_void_reshaped_nidx_00_c_03_3"
  reshape_param {
    shape {
      dim: 0
      dim: 13
      dim: 1
      dim: 1
    }
  }
}
layer {
  name: "concat_conv_ip_nidx_00_c_03_3"
  type: "Concat"
  bottom: "conv3_id_loc_reshaped_nidx_00_c_03_3"
  bottom: "ip3_id_void_reshaped_nidx_00_c_03_3"
  top: "conv_ip3_id_loc_nidx_00_c_03_3"
  concat_param {
    axis: 3
  }
}
layer {
  name: "loss_id_loc_nidx_00_c_03_3"
  type: "SigmoidCrossEntropyLoss"
  bottom: "conv_ip3_id_loc_nidx_00_c_03_3"
  bottom: "label_id_loc"
  top: "loss_id_loc_nidx_00_c_03_3"
  loss_weight: 1
}
layer {
  name: "conv1_nidx_01_c_03_4"
  type: "Convolution"
  bottom: "ratemap"
  top: "conv1_nidx_01_c_03_4"
  param {
    lr_mult: 1
    decay_mult: 1
  }
  param {
    lr_mult: 2
    decay_mult: 0
  }
  convolution_param {
    num_output: 64
    stride: 1
    weight_filler {
      type: "xavier"
    }
    bias_filler {
      type: "constant"
    }
    kernel_h: 3
    kernel_w: 3
  }
}
layer {
  name: "relu_conv1_nidx_01_c_03_4"
  type: "ReLU"
  bottom: "conv1_nidx_01_c_03_4"
  top: "conv1_nidx_01_c_03_4"
}
layer {
  name: "pool1_nidx_01_c_03_4"
  type: "Pooling"
  bottom: "conv1_nidx_01_c_03_4"
  top: "pool1_nidx_01_c_03_4"
  pooling_param {
    pool: MAX
    kernel_size: 2
    stride: 2
  }
}
layer {
  name: "conv2_nidx_01_c_03_4"
  type: "Convolution"
  bottom: "pool1_nidx_01_c_03_4"
  top: "conv2_nidx_01_c_03_4"
  param {
    lr_mult: 1
    decay_mult: 1
  }
  param {
    lr_mult: 2
    decay_mult: 0
  }
  convolution_param {
    num_output: 128
    stride: 1
    weight_filler {
      type: "xavier"
    }
    bias_filler {
      type: "constant"
    }
    kernel_h: 3
    kernel_w: 3
  }
}
layer {
  name: "pool2_nidx_01_c_03_4"
  type: "Pooling"
  bottom: "conv2_nidx_01_c_03_4"
  top: "pool2_nidx_01_c_03_4"
  pooling_param {
    pool: MAX
    kernel_size: 2
    stride: 2
  }
}
layer {
  name: "relu_conv2_nidx_01_c_03_4"
  type: "ReLU"
  bottom: "pool2_nidx_01_c_03_4"
  top: "pool2_nidx_01_c_03_4"
}
layer {
  name: "conv3_nidx_01_c_03_4"
  type: "Convolution"
  bottom: "pool2_nidx_01_c_03_4"
  top: "conv3_nidx_01_c_03_4"
  param {
    lr_mult: 1
    decay_mult: 1
  }
  param {
    lr_mult: 2
    decay_mult: 0
  }
  convolution_param {
    num_output: 128
    stride: 1
    weight_filler {
      type: "xavier"
    }
    bias_filler {
      type: "constant"
    }
    kernel_h: 3
    kernel_w: 3
  }
}
layer {
  name: "relu_conv3_nidx_01_c_03_4"
  type: "ReLU"
  bottom: "conv3_nidx_01_c_03_4"
  top: "conv3_nidx_01_c_03_4"
}
layer {
  name: "ip2_rm_nidx_01_c_03_4"
  type: "InnerProduct"
  bottom: "conv3_nidx_01_c_03_4"
  top: "ip2_rm_nidx_01_c_03_4"
  param {
    lr_mult: 1
  }
  param {
    lr_mult: 2
  }
  inner_product_param {
    num_output: 128
    weight_filler {
      type: "xavier"
    }
    bias_filler {
      type: "constant"
    }
  }
}
layer {
  name: "conv1_ild_nidx_01_c_03_4"
  type: "Convolution"
  bottom: "ild"
  top: "conv1_ild_nidx_01_c_03_4"
  param {
    lr_mult: 1
    decay_mult: 1
  }
  param {
    lr_mult: 2
    decay_mult: 0
  }
  convolution_param {
    num_output: 64
    stride: 1
    weight_filler {
      type: "xavier"
    }
    bias_filler {
      type: "constant"
    }
    kernel_h: 3
    kernel_w: 3
  }
}
layer {
  name: "relu_ild_conv1_nidx_01_c_03_4"
  type: "ReLU"
  bottom: "conv1_ild_nidx_01_c_03_4"
  top: "conv1_ild_nidx_01_c_03_4"
}
layer {
  name: "pool1_ild_nidx_01_c_03_4"
  type: "Pooling"
  bottom: "conv1_ild_nidx_01_c_03_4"
  top: "pool1_ild_nidx_01_c_03_4"
  pooling_param {
    pool: MAX
    kernel_size: 2
    stride: 2
  }
}
layer {
  name: "conv2_ild_nidx_01_c_03_4"
  type: "Convolution"
  bottom: "pool1_ild_nidx_01_c_03_4"
  top: "conv2_ild_nidx_01_c_03_4"
  param {
    lr_mult: 1
    decay_mult: 1
  }
  param {
    lr_mult: 2
    decay_mult: 0
  }
  convolution_param {
    num_output: 128
    stride: 1
    weight_filler {
      type: "xavier"
    }
    bias_filler {
      type: "constant"
    }
    kernel_h: 3
    kernel_w: 3
  }
}
layer {
  name: "pool2_ild_nidx_01_c_03_4"
  type: "Pooling"
  bottom: "conv2_ild_nidx_01_c_03_4"
  top: "pool2_ild_nidx_01_c_03_4"
  pooling_param {
    pool: MAX
    kernel_size: 2
    stride: 2
  }
}
layer {
  name: "relu_ild_conv2_nidx_01_c_03_4"
  type: "ReLU"
  bottom: "pool2_ild_nidx_01_c_03_4"
  top: "pool2_ild_nidx_01_c_03_4"
}
layer {
  name: "conv3_ild_nidx_01_c_03_4"
  type: "Convolution"
  bottom: "pool2_ild_nidx_01_c_03_4"
  top: "conv3_ild_nidx_01_c_03_4"
  param {
    lr_mult: 1
    decay_mult: 1
  }
  param {
    lr_mult: 2
    decay_mult: 0
  }
  convolution_param {
    num_output: 128
    stride: 1
    weight_filler {
      type: "xavier"
    }
    bias_filler {
      type: "constant"
    }
    kernel_h: 3
    kernel_w: 3
  }
}
layer {
  name: "relu_ild_conv3_nidx_01_c_03_4"
  type: "ReLU"
  bottom: "conv3_ild_nidx_01_c_03_4"
  top: "conv3_ild_nidx_01_c_03_4"
}
layer {
  name: "ip2_ild_nidx_01_c_03_4"
  type: "InnerProduct"
  bottom: "conv3_ild_nidx_01_c_03_4"
  top: "ip2_ild_nidx_01_c_03_4"
  param {
    lr_mult: 1
  }
  param {
    lr_mult: 2
  }
  inner_product_param {
    num_output: 128
    weight_filler {
      type: "xavier"
    }
    bias_filler {
      type: "constant"
    }
  }
}
layer {
  name: "concat_nidx_01_c_03_4"
  type: "Concat"
  bottom: "ip2_rm_nidx_01_c_03_4"
  bottom: "ip2_ild_nidx_01_c_03_4"
  top: "ip2_nidx_01_c_03_4"
  concat_param {
    axis: 1
  }
}
layer {
  name: "relu_ip2_nidx_01_c_03_4"
  type: "ReLU"
  bottom: "ip2_nidx_01_c_03_4"
  top: "ip2_nidx_01_c_03_4"
}
layer {
  name: "dropip2_nidx_01_c_03_4"
  type: "Dropout"
  bottom: "ip2_nidx_01_c_03_4"
  top: "ip2_nidx_01_c_03_4"
  dropout_param {
    dropout_ratio: 0.5
  }
}
layer {
  name: "ip3_id_void_nidx_01_c_03_4"
  type: "InnerProduct"
  bottom: "ip2_nidx_01_c_03_4"
  top: "ip3_id_void_nidx_01_c_03_4"
  param {
    lr_mult: 1
  }
  param {
    lr_mult: 2
  }
  inner_product_param {
    num_output: 13
    weight_filler {
      type: "xavier"
    }
    bias_filler {
      type: "constant"
    }
  }
}
layer {
  name: "ip3_id_loc_nidx_01_c_03_4"
  type: "InnerProduct"
  bottom: "ip2_nidx_01_c_03_4"
  top: "ip3_id_loc_nidx_01_c_03_4"
  param {
    lr_mult: 1
  }
  param {
    lr_mult: 2
  }
  inner_product_param {
    num_output: 1144
    weight_filler {
      type: "xavier"
    }
    bias_filler {
      type: "constant"
    }
  }
}
layer {
  name: "reshape_nidx_01_c_03_4"
  type: "Reshape"
  bottom: "ip3_id_loc_nidx_01_c_03_4"
  top: "ip3_id_loc_reshaped_nidx_01_c_03_4"
  reshape_param {
    shape {
      dim: 0
      dim: 13
      dim: 1
      dim: -1
    }
  }
}
layer {
  name: "conv1_id_loc_nidx_01_c_03_4"
  type: "Convolution"
  bottom: "ip3_id_loc_reshaped_nidx_01_c_03_4"
  top: "conv1_id_loc_nidx_01_c_03_4"
  param {
    lr_mult: 1
    decay_mult: 1
  }
  param {
    lr_mult: 2
    decay_mult: 0
  }
  convolution_param {
    num_output: 13
    stride: 1
    weight_filler {
      type: "xavier"
    }
    bias_filler {
      type: "constant"
    }
    kernel_h: 1
    kernel_w: 5
  }
}
layer {
  name: "relu_conv1_id_loc_nidx_01_c_03_4"
  type: "ReLU"
  bottom: "conv1_id_loc_nidx_01_c_03_4"
  top: "conv1_id_loc_nidx_01_c_03_4"
}
layer {
  name: "conv2_id_loc_nidx_01_c_03_4"
  type: "Convolution"
  bottom: "conv1_id_loc_nidx_01_c_03_4"
  top: "conv2_id_loc_nidx_01_c_03_4"
  param {
    lr_mult: 1
    decay_mult: 1
  }
  param {
    lr_mult: 2
    decay_mult: 0
  }
  convolution_param {
    num_output: 13
    stride: 1
    weight_filler {
      type: "xavier"
    }
    bias_filler {
      type: "constant"
    }
    kernel_h: 1
    kernel_w: 5
  }
}
layer {
  name: "relu_conv2_id_loc_nidx_01_c_03_4"
  type: "ReLU"
  bottom: "conv2_id_loc_nidx_01_c_03_4"
  top: "conv2_id_loc_nidx_01_c_03_4"
}
layer {
  name: "conv3_id_loc_nidx_01_c_03_4"
  type: "Convolution"
  bottom: "conv2_id_loc_nidx_01_c_03_4"
  top: "conv3_id_loc_nidx_01_c_03_4"
  param {
    lr_mult: 1
    decay_mult: 1
  }
  param {
    lr_mult: 2
    decay_mult: 0
  }
  convolution_param {
    num_output: 13
    stride: 1
    weight_filler {
      type: "xavier"
    }
    bias_filler {
      type: "constant"
    }
    kernel_h: 1
    kernel_w: 5
  }
}
layer {
  name: "relu_conv3_id_loc_nidx_01_c_03_4"
  type: "ReLU"
  bottom: "conv3_id_loc_nidx_01_c_03_4"
  top: "conv3_id_loc_nidx_01_c_03_4"
}
layer {
  name: "conv4_id_loc_nidx_01_c_03_4"
  type: "Convolution"
  bottom: "conv3_id_loc_nidx_01_c_03_4"
  top: "conv4_id_loc_nidx_01_c_03_4"
  param {
    lr_mult: 1
    decay_mult: 1
  }
  param {
    lr_mult: 2
    decay_mult: 0
  }
  convolution_param {
    num_output: 13
    stride: 1
    weight_filler {
      type: "xavier"
    }
    bias_filler {
      type: "constant"
    }
    kernel_h: 1
    kernel_w: 5
  }
}
layer {
  name: "reshape_conv4_id_loc_nidx_01_c_03_4"
  type: "Reshape"
  bottom: "conv4_id_loc_nidx_01_c_03_4"
  top: "conv4_id_loc_reshaped_nidx_01_c_03_4"
  reshape_param {
    shape {
      dim: 0
      dim: 13
      dim: 1
      dim: 72
    }
  }
}
layer {
  name: "reshape_ip3_id_void_nidx_01_c_03_4"
  type: "Reshape"
  bottom: "ip3_id_void_nidx_01_c_03_4"
  top: "ip3_id_void_reshaped_nidx_01_c_03_4"
  reshape_param {
    shape {
      dim: 0
      dim: 13
      dim: 1
      dim: 1
    }
  }
}
layer {
  name: "concat_conv_ip_nidx_01_c_03_4"
  type: "Concat"
  bottom: "conv4_id_loc_reshaped_nidx_01_c_03_4"
  bottom: "ip3_id_void_reshaped_nidx_01_c_03_4"
  top: "conv_ip3_id_loc_nidx_01_c_03_4"
  concat_param {
    axis: 3
  }
}
layer {
  name: "loss_id_loc_nidx_01_c_03_4"
  type: "SigmoidCrossEntropyLoss"
  bottom: "conv_ip3_id_loc_nidx_01_c_03_4"
  bottom: "label_id_loc"
  top: "loss_id_loc_nidx_01_c_03_4"
  loss_weight: 1
}
I1028 18:21:47.201297 11865 layer_factory.hpp:77] Creating layer data
I1028 18:21:47.201333 11865 net.cpp:100] Creating Layer data
I1028 18:21:47.201349 11865 net.cpp:408] data -> ratemap
I1028 18:21:47.201380 11865 net.cpp:408] data -> ild
I1028 18:21:47.201398 11865 net.cpp:408] data -> label_id_loc
I1028 18:21:47.201416 11865 hdf5_data_layer.cpp:79] Loading list of HDF5 filenames from: /mnt/raid/data/ni/twoears/kashefy/brir/bal_900K/split_300/twoears_data_train_ord1.txt
I1028 18:21:47.202489 11865 hdf5_data_layer.cpp:93] Number of HDF5 files: 165
I1028 18:21:47.243894 11865 hdf5.cpp:32] Datatype class: H5T_FLOAT
I1028 18:21:48.264210 11865 net.cpp:150] Setting up data
I1028 18:21:48.264266 11865 net.cpp:157] Top shape: 512 2 24 50 (1228800)
I1028 18:21:48.264282 11865 net.cpp:157] Top shape: 512 1 32 50 (819200)
I1028 18:21:48.264294 11865 net.cpp:157] Top shape: 512 13 1 73 (485888)
I1028 18:21:48.264304 11865 net.cpp:165] Memory required for data: 10135552
I1028 18:21:48.264322 11865 layer_factory.hpp:77] Creating layer ratemap_data_0_split
I1028 18:21:48.264350 11865 net.cpp:100] Creating Layer ratemap_data_0_split
I1028 18:21:48.264364 11865 net.cpp:434] ratemap_data_0_split <- ratemap
I1028 18:21:48.264384 11865 net.cpp:408] ratemap_data_0_split -> ratemap_data_0_split_0
I1028 18:21:48.264402 11865 net.cpp:408] ratemap_data_0_split -> ratemap_data_0_split_1
I1028 18:21:48.264467 11865 net.cpp:150] Setting up ratemap_data_0_split
I1028 18:21:48.264484 11865 net.cpp:157] Top shape: 512 2 24 50 (1228800)
I1028 18:21:48.264497 11865 net.cpp:157] Top shape: 512 2 24 50 (1228800)
I1028 18:21:48.264514 11865 net.cpp:165] Memory required for data: 19965952
I1028 18:21:48.264525 11865 layer_factory.hpp:77] Creating layer ild_data_1_split
I1028 18:21:48.264539 11865 net.cpp:100] Creating Layer ild_data_1_split
I1028 18:21:48.264549 11865 net.cpp:434] ild_data_1_split <- ild
I1028 18:21:48.264562 11865 net.cpp:408] ild_data_1_split -> ild_data_1_split_0
I1028 18:21:48.264576 11865 net.cpp:408] ild_data_1_split -> ild_data_1_split_1
I1028 18:21:48.264626 11865 net.cpp:150] Setting up ild_data_1_split
I1028 18:21:48.264642 11865 net.cpp:157] Top shape: 512 1 32 50 (819200)
I1028 18:21:48.264654 11865 net.cpp:157] Top shape: 512 1 32 50 (819200)
I1028 18:21:48.264663 11865 net.cpp:165] Memory required for data: 26519552
I1028 18:21:48.264673 11865 layer_factory.hpp:77] Creating layer label_id_loc_data_2_split
I1028 18:21:48.264685 11865 net.cpp:100] Creating Layer label_id_loc_data_2_split
I1028 18:21:48.264695 11865 net.cpp:434] label_id_loc_data_2_split <- label_id_loc
I1028 18:21:48.264708 11865 net.cpp:408] label_id_loc_data_2_split -> label_id_loc_data_2_split_0
I1028 18:21:48.264722 11865 net.cpp:408] label_id_loc_data_2_split -> label_id_loc_data_2_split_1
I1028 18:21:48.264770 11865 net.cpp:150] Setting up label_id_loc_data_2_split
I1028 18:21:48.264786 11865 net.cpp:157] Top shape: 512 13 1 73 (485888)
I1028 18:21:48.264797 11865 net.cpp:157] Top shape: 512 13 1 73 (485888)
I1028 18:21:48.264806 11865 net.cpp:165] Memory required for data: 30406656
I1028 18:21:48.264816 11865 layer_factory.hpp:77] Creating layer conv1_nidx_00_c_03_3
I1028 18:21:48.264843 11865 net.cpp:100] Creating Layer conv1_nidx_00_c_03_3
I1028 18:21:48.264855 11865 net.cpp:434] conv1_nidx_00_c_03_3 <- ratemap_data_0_split_0
I1028 18:21:48.264869 11865 net.cpp:408] conv1_nidx_00_c_03_3 -> conv1_nidx_00_c_03_3
I1028 18:21:48.267078 11865 net.cpp:150] Setting up conv1_nidx_00_c_03_3
I1028 18:21:48.267125 11865 net.cpp:157] Top shape: 512 64 22 48 (34603008)
I1028 18:21:48.267138 11865 net.cpp:165] Memory required for data: 168818688
I1028 18:21:48.267166 11865 layer_factory.hpp:77] Creating layer relu_conv1_nidx_00_c_03_3
I1028 18:21:48.267185 11865 net.cpp:100] Creating Layer relu_conv1_nidx_00_c_03_3
I1028 18:21:48.267199 11865 net.cpp:434] relu_conv1_nidx_00_c_03_3 <- conv1_nidx_00_c_03_3
I1028 18:21:48.267213 11865 net.cpp:395] relu_conv1_nidx_00_c_03_3 -> conv1_nidx_00_c_03_3 (in-place)
I1028 18:21:48.267237 11865 net.cpp:150] Setting up relu_conv1_nidx_00_c_03_3
I1028 18:21:48.267249 11865 net.cpp:157] Top shape: 512 64 22 48 (34603008)
I1028 18:21:48.267259 11865 net.cpp:165] Memory required for data: 307230720
I1028 18:21:48.267269 11865 layer_factory.hpp:77] Creating layer pool1_nidx_00_c_03_3
I1028 18:21:48.267283 11865 net.cpp:100] Creating Layer pool1_nidx_00_c_03_3
I1028 18:21:48.267293 11865 net.cpp:434] pool1_nidx_00_c_03_3 <- conv1_nidx_00_c_03_3
I1028 18:21:48.267307 11865 net.cpp:408] pool1_nidx_00_c_03_3 -> pool1_nidx_00_c_03_3
I1028 18:21:48.267376 11865 net.cpp:150] Setting up pool1_nidx_00_c_03_3
I1028 18:21:48.267395 11865 net.cpp:157] Top shape: 512 64 11 24 (8650752)
I1028 18:21:48.267405 11865 net.cpp:165] Memory required for data: 341833728
I1028 18:21:48.267415 11865 layer_factory.hpp:77] Creating layer conv2_nidx_00_c_03_3
I1028 18:21:48.267434 11865 net.cpp:100] Creating Layer conv2_nidx_00_c_03_3
I1028 18:21:48.267446 11865 net.cpp:434] conv2_nidx_00_c_03_3 <- pool1_nidx_00_c_03_3
I1028 18:21:48.267459 11865 net.cpp:408] conv2_nidx_00_c_03_3 -> conv2_nidx_00_c_03_3
I1028 18:21:48.269798 11865 net.cpp:150] Setting up conv2_nidx_00_c_03_3
I1028 18:21:48.269851 11865 net.cpp:157] Top shape: 512 128 9 22 (12976128)
I1028 18:21:48.269863 11865 net.cpp:165] Memory required for data: 393738240
I1028 18:21:48.269886 11865 layer_factory.hpp:77] Creating layer pool2_nidx_00_c_03_3
I1028 18:21:48.269907 11865 net.cpp:100] Creating Layer pool2_nidx_00_c_03_3
I1028 18:21:48.269919 11865 net.cpp:434] pool2_nidx_00_c_03_3 <- conv2_nidx_00_c_03_3
I1028 18:21:48.269935 11865 net.cpp:408] pool2_nidx_00_c_03_3 -> pool2_nidx_00_c_03_3
I1028 18:21:48.270015 11865 net.cpp:150] Setting up pool2_nidx_00_c_03_3
I1028 18:21:48.270032 11865 net.cpp:157] Top shape: 512 128 5 11 (3604480)
I1028 18:21:48.270041 11865 net.cpp:165] Memory required for data: 408156160
I1028 18:21:48.270052 11865 layer_factory.hpp:77] Creating layer relu_conv2_nidx_00_c_03_3
I1028 18:21:48.270077 11865 net.cpp:100] Creating Layer relu_conv2_nidx_00_c_03_3
I1028 18:21:48.270097 11865 net.cpp:434] relu_conv2_nidx_00_c_03_3 <- pool2_nidx_00_c_03_3
I1028 18:21:48.270112 11865 net.cpp:395] relu_conv2_nidx_00_c_03_3 -> pool2_nidx_00_c_03_3 (in-place)
I1028 18:21:48.270128 11865 net.cpp:150] Setting up relu_conv2_nidx_00_c_03_3
I1028 18:21:48.270141 11865 net.cpp:157] Top shape: 512 128 5 11 (3604480)
I1028 18:21:48.270151 11865 net.cpp:165] Memory required for data: 422574080
I1028 18:21:48.270161 11865 layer_factory.hpp:77] Creating layer conv3_nidx_00_c_03_3
I1028 18:21:48.270181 11865 net.cpp:100] Creating Layer conv3_nidx_00_c_03_3
I1028 18:21:48.270191 11865 net.cpp:434] conv3_nidx_00_c_03_3 <- pool2_nidx_00_c_03_3
I1028 18:21:48.270205 11865 net.cpp:408] conv3_nidx_00_c_03_3 -> conv3_nidx_00_c_03_3
I1028 18:21:48.272217 11865 net.cpp:150] Setting up conv3_nidx_00_c_03_3
I1028 18:21:48.272256 11865 net.cpp:157] Top shape: 512 128 3 9 (1769472)
I1028 18:21:48.272267 11865 net.cpp:165] Memory required for data: 429651968
I1028 18:21:48.272289 11865 layer_factory.hpp:77] Creating layer relu_conv3_nidx_00_c_03_3
I1028 18:21:48.272305 11865 net.cpp:100] Creating Layer relu_conv3_nidx_00_c_03_3
I1028 18:21:48.272318 11865 net.cpp:434] relu_conv3_nidx_00_c_03_3 <- conv3_nidx_00_c_03_3
I1028 18:21:48.272332 11865 net.cpp:395] relu_conv3_nidx_00_c_03_3 -> conv3_nidx_00_c_03_3 (in-place)
I1028 18:21:48.272349 11865 net.cpp:150] Setting up relu_conv3_nidx_00_c_03_3
I1028 18:21:48.272361 11865 net.cpp:157] Top shape: 512 128 3 9 (1769472)
I1028 18:21:48.272372 11865 net.cpp:165] Memory required for data: 436729856
I1028 18:21:48.272380 11865 layer_factory.hpp:77] Creating layer conv1_ild_nidx_00_c_03_3
I1028 18:21:48.272400 11865 net.cpp:100] Creating Layer conv1_ild_nidx_00_c_03_3
I1028 18:21:48.272411 11865 net.cpp:434] conv1_ild_nidx_00_c_03_3 <- ild_data_1_split_0
I1028 18:21:48.272425 11865 net.cpp:408] conv1_ild_nidx_00_c_03_3 -> conv1_ild_nidx_00_c_03_3
I1028 18:21:48.274046 11865 net.cpp:150] Setting up conv1_ild_nidx_00_c_03_3
I1028 18:21:48.274113 11865 net.cpp:157] Top shape: 512 64 30 48 (47185920)
I1028 18:21:48.274127 11865 net.cpp:165] Memory required for data: 625473536
I1028 18:21:48.274144 11865 layer_factory.hpp:77] Creating layer relu_ild_conv1_nidx_00_c_03_3
I1028 18:21:48.274163 11865 net.cpp:100] Creating Layer relu_ild_conv1_nidx_00_c_03_3
I1028 18:21:48.274174 11865 net.cpp:434] relu_ild_conv1_nidx_00_c_03_3 <- conv1_ild_nidx_00_c_03_3
I1028 18:21:48.274189 11865 net.cpp:395] relu_ild_conv1_nidx_00_c_03_3 -> conv1_ild_nidx_00_c_03_3 (in-place)
I1028 18:21:48.274209 11865 net.cpp:150] Setting up relu_ild_conv1_nidx_00_c_03_3
I1028 18:21:48.274220 11865 net.cpp:157] Top shape: 512 64 30 48 (47185920)
I1028 18:21:48.274230 11865 net.cpp:165] Memory required for data: 814217216
I1028 18:21:48.274240 11865 layer_factory.hpp:77] Creating layer pool1_ild_nidx_00_c_03_3
I1028 18:21:48.274253 11865 net.cpp:100] Creating Layer pool1_ild_nidx_00_c_03_3
I1028 18:21:48.274263 11865 net.cpp:434] pool1_ild_nidx_00_c_03_3 <- conv1_ild_nidx_00_c_03_3
I1028 18:21:48.274276 11865 net.cpp:408] pool1_ild_nidx_00_c_03_3 -> pool1_ild_nidx_00_c_03_3
I1028 18:21:48.274338 11865 net.cpp:150] Setting up pool1_ild_nidx_00_c_03_3
I1028 18:21:48.274356 11865 net.cpp:157] Top shape: 512 64 15 24 (11796480)
I1028 18:21:48.274366 11865 net.cpp:165] Memory required for data: 861403136
I1028 18:21:48.274376 11865 layer_factory.hpp:77] Creating layer conv2_ild_nidx_00_c_03_3
I1028 18:21:48.274395 11865 net.cpp:100] Creating Layer conv2_ild_nidx_00_c_03_3
I1028 18:21:48.274407 11865 net.cpp:434] conv2_ild_nidx_00_c_03_3 <- pool1_ild_nidx_00_c_03_3
I1028 18:21:48.274430 11865 net.cpp:408] conv2_ild_nidx_00_c_03_3 -> conv2_ild_nidx_00_c_03_3
I1028 18:21:48.275533 11865 net.cpp:150] Setting up conv2_ild_nidx_00_c_03_3
I1028 18:21:48.275560 11865 net.cpp:157] Top shape: 512 128 13 22 (18743296)
I1028 18:21:48.275570 11865 net.cpp:165] Memory required for data: 936376320
I1028 18:21:48.275589 11865 layer_factory.hpp:77] Creating layer pool2_ild_nidx_00_c_03_3
I1028 18:21:48.275607 11865 net.cpp:100] Creating Layer pool2_ild_nidx_00_c_03_3
I1028 18:21:48.275617 11865 net.cpp:434] pool2_ild_nidx_00_c_03_3 <- conv2_ild_nidx_00_c_03_3
I1028 18:21:48.275630 11865 net.cpp:408] pool2_ild_nidx_00_c_03_3 -> pool2_ild_nidx_00_c_03_3
I1028 18:21:48.275684 11865 net.cpp:150] Setting up pool2_ild_nidx_00_c_03_3
I1028 18:21:48.275701 11865 net.cpp:157] Top shape: 512 128 7 11 (5046272)
I1028 18:21:48.275709 11865 net.cpp:165] Memory required for data: 956561408
I1028 18:21:48.275719 11865 layer_factory.hpp:77] Creating layer relu_ild_conv2_nidx_00_c_03_3
I1028 18:21:48.275732 11865 net.cpp:100] Creating Layer relu_ild_conv2_nidx_00_c_03_3
I1028 18:21:48.275741 11865 net.cpp:434] relu_ild_conv2_nidx_00_c_03_3 <- pool2_ild_nidx_00_c_03_3
I1028 18:21:48.275753 11865 net.cpp:395] relu_ild_conv2_nidx_00_c_03_3 -> pool2_ild_nidx_00_c_03_3 (in-place)
I1028 18:21:48.275766 11865 net.cpp:150] Setting up relu_ild_conv2_nidx_00_c_03_3
I1028 18:21:48.275777 11865 net.cpp:157] Top shape: 512 128 7 11 (5046272)
I1028 18:21:48.275786 11865 net.cpp:165] Memory required for data: 976746496
I1028 18:21:48.275795 11865 layer_factory.hpp:77] Creating layer conv3_ild_nidx_00_c_03_3
I1028 18:21:48.275812 11865 net.cpp:100] Creating Layer conv3_ild_nidx_00_c_03_3
I1028 18:21:48.275822 11865 net.cpp:434] conv3_ild_nidx_00_c_03_3 <- pool2_ild_nidx_00_c_03_3
I1028 18:21:48.275835 11865 net.cpp:408] conv3_ild_nidx_00_c_03_3 -> conv3_ild_nidx_00_c_03_3
I1028 18:21:48.277715 11865 net.cpp:150] Setting up conv3_ild_nidx_00_c_03_3
I1028 18:21:48.277751 11865 net.cpp:157] Top shape: 512 128 5 9 (2949120)
I1028 18:21:48.277761 11865 net.cpp:165] Memory required for data: 988542976
I1028 18:21:48.277776 11865 layer_factory.hpp:77] Creating layer relu_ild_conv3_nidx_00_c_03_3
I1028 18:21:48.277792 11865 net.cpp:100] Creating Layer relu_ild_conv3_nidx_00_c_03_3
I1028 18:21:48.277804 11865 net.cpp:434] relu_ild_conv3_nidx_00_c_03_3 <- conv3_ild_nidx_00_c_03_3
I1028 18:21:48.277817 11865 net.cpp:395] relu_ild_conv3_nidx_00_c_03_3 -> conv3_ild_nidx_00_c_03_3 (in-place)
I1028 18:21:48.277832 11865 net.cpp:150] Setting up relu_ild_conv3_nidx_00_c_03_3
I1028 18:21:48.277843 11865 net.cpp:157] Top shape: 512 128 5 9 (2949120)
I1028 18:21:48.277851 11865 net.cpp:165] Memory required for data: 1000339456
I1028 18:21:48.277860 11865 layer_factory.hpp:77] Creating layer ip2_rm_nidx_00_c_03_3
I1028 18:21:48.277876 11865 net.cpp:100] Creating Layer ip2_rm_nidx_00_c_03_3
I1028 18:21:48.277886 11865 net.cpp:434] ip2_rm_nidx_00_c_03_3 <- conv3_nidx_00_c_03_3
I1028 18:21:48.277899 11865 net.cpp:408] ip2_rm_nidx_00_c_03_3 -> ip2_rm_nidx_00_c_03_3
I1028 18:21:48.283347 11865 net.cpp:150] Setting up ip2_rm_nidx_00_c_03_3
I1028 18:21:48.283398 11865 net.cpp:157] Top shape: 512 128 (65536)
I1028 18:21:48.283408 11865 net.cpp:165] Memory required for data: 1000601600
I1028 18:21:48.283423 11865 layer_factory.hpp:77] Creating layer ip2_ild_nidx_00_c_03_3
I1028 18:21:48.283442 11865 net.cpp:100] Creating Layer ip2_ild_nidx_00_c_03_3
I1028 18:21:48.283453 11865 net.cpp:434] ip2_ild_nidx_00_c_03_3 <- conv3_ild_nidx_00_c_03_3
I1028 18:21:48.283468 11865 net.cpp:408] ip2_ild_nidx_00_c_03_3 -> ip2_ild_nidx_00_c_03_3
I1028 18:21:48.291940 11865 net.cpp:150] Setting up ip2_ild_nidx_00_c_03_3
I1028 18:21:48.291993 11865 net.cpp:157] Top shape: 512 128 (65536)
I1028 18:21:48.292003 11865 net.cpp:165] Memory required for data: 1000863744
I1028 18:21:48.292019 11865 layer_factory.hpp:77] Creating layer concat_nidx_00_c_03_3
I1028 18:21:48.292050 11865 net.cpp:100] Creating Layer concat_nidx_00_c_03_3
I1028 18:21:48.292062 11865 net.cpp:434] concat_nidx_00_c_03_3 <- ip2_rm_nidx_00_c_03_3
I1028 18:21:48.292080 11865 net.cpp:434] concat_nidx_00_c_03_3 <- ip2_ild_nidx_00_c_03_3
I1028 18:21:48.292093 11865 net.cpp:408] concat_nidx_00_c_03_3 -> ip2_nidx_00_c_03_3
I1028 18:21:48.292143 11865 net.cpp:150] Setting up concat_nidx_00_c_03_3
I1028 18:21:48.292158 11865 net.cpp:157] Top shape: 512 256 (131072)
I1028 18:21:48.292167 11865 net.cpp:165] Memory required for data: 1001388032
I1028 18:21:48.292176 11865 layer_factory.hpp:77] Creating layer relu_ip2_nidx_00_c_03_3
I1028 18:21:48.292188 11865 net.cpp:100] Creating Layer relu_ip2_nidx_00_c_03_3
I1028 18:21:48.292197 11865 net.cpp:434] relu_ip2_nidx_00_c_03_3 <- ip2_nidx_00_c_03_3
I1028 18:21:48.292207 11865 net.cpp:395] relu_ip2_nidx_00_c_03_3 -> ip2_nidx_00_c_03_3 (in-place)
I1028 18:21:48.292220 11865 net.cpp:150] Setting up relu_ip2_nidx_00_c_03_3
I1028 18:21:48.292230 11865 net.cpp:157] Top shape: 512 256 (131072)
I1028 18:21:48.292238 11865 net.cpp:165] Memory required for data: 1001912320
I1028 18:21:48.292246 11865 layer_factory.hpp:77] Creating layer dropip2_nidx_00_c_03_3
I1028 18:21:48.292258 11865 net.cpp:100] Creating Layer dropip2_nidx_00_c_03_3
I1028 18:21:48.292268 11865 net.cpp:434] dropip2_nidx_00_c_03_3 <- ip2_nidx_00_c_03_3
I1028 18:21:48.292278 11865 net.cpp:395] dropip2_nidx_00_c_03_3 -> ip2_nidx_00_c_03_3 (in-place)
I1028 18:21:48.292311 11865 net.cpp:150] Setting up dropip2_nidx_00_c_03_3
I1028 18:21:48.292323 11865 net.cpp:157] Top shape: 512 256 (131072)
I1028 18:21:48.292331 11865 net.cpp:165] Memory required for data: 1002436608
I1028 18:21:48.292340 11865 layer_factory.hpp:77] Creating layer ip2_nidx_00_c_03_3_dropip2_nidx_00_c_03_3_0_split
I1028 18:21:48.292351 11865 net.cpp:100] Creating Layer ip2_nidx_00_c_03_3_dropip2_nidx_00_c_03_3_0_split
I1028 18:21:48.292359 11865 net.cpp:434] ip2_nidx_00_c_03_3_dropip2_nidx_00_c_03_3_0_split <- ip2_nidx_00_c_03_3
I1028 18:21:48.292369 11865 net.cpp:408] ip2_nidx_00_c_03_3_dropip2_nidx_00_c_03_3_0_split -> ip2_nidx_00_c_03_3_dropip2_nidx_00_c_03_3_0_split_0
I1028 18:21:48.292383 11865 net.cpp:408] ip2_nidx_00_c_03_3_dropip2_nidx_00_c_03_3_0_split -> ip2_nidx_00_c_03_3_dropip2_nidx_00_c_03_3_0_split_1
I1028 18:21:48.292426 11865 net.cpp:150] Setting up ip2_nidx_00_c_03_3_dropip2_nidx_00_c_03_3_0_split
I1028 18:21:48.292438 11865 net.cpp:157] Top shape: 512 256 (131072)
I1028 18:21:48.292446 11865 net.cpp:157] Top shape: 512 256 (131072)
I1028 18:21:48.292454 11865 net.cpp:165] Memory required for data: 1003485184
I1028 18:21:48.292462 11865 layer_factory.hpp:77] Creating layer ip3_id_void_nidx_00_c_03_3
I1028 18:21:48.292477 11865 net.cpp:100] Creating Layer ip3_id_void_nidx_00_c_03_3
I1028 18:21:48.292486 11865 net.cpp:434] ip3_id_void_nidx_00_c_03_3 <- ip2_nidx_00_c_03_3_dropip2_nidx_00_c_03_3_0_split_0
I1028 18:21:48.292497 11865 net.cpp:408] ip3_id_void_nidx_00_c_03_3 -> ip3_id_void_nidx_00_c_03_3
I1028 18:21:48.292662 11865 net.cpp:150] Setting up ip3_id_void_nidx_00_c_03_3
I1028 18:21:48.292678 11865 net.cpp:157] Top shape: 512 13 (6656)
I1028 18:21:48.292686 11865 net.cpp:165] Memory required for data: 1003511808
I1028 18:21:48.292704 11865 layer_factory.hpp:77] Creating layer ip3_id_loc_nidx_00_c_03_3
I1028 18:21:48.292717 11865 net.cpp:100] Creating Layer ip3_id_loc_nidx_00_c_03_3
I1028 18:21:48.292727 11865 net.cpp:434] ip3_id_loc_nidx_00_c_03_3 <- ip2_nidx_00_c_03_3_dropip2_nidx_00_c_03_3_0_split_1
I1028 18:21:48.292738 11865 net.cpp:408] ip3_id_loc_nidx_00_c_03_3 -> ip3_id_loc_nidx_00_c_03_3
I1028 18:21:48.296555 11865 net.cpp:150] Setting up ip3_id_loc_nidx_00_c_03_3
I1028 18:21:48.296607 11865 net.cpp:157] Top shape: 512 1092 (559104)
I1028 18:21:48.296617 11865 net.cpp:165] Memory required for data: 1005748224
I1028 18:21:48.296633 11865 layer_factory.hpp:77] Creating layer reshape_nidx_00_c_03_3
I1028 18:21:48.296664 11865 net.cpp:100] Creating Layer reshape_nidx_00_c_03_3
I1028 18:21:48.296676 11865 net.cpp:434] reshape_nidx_00_c_03_3 <- ip3_id_loc_nidx_00_c_03_3
I1028 18:21:48.296691 11865 net.cpp:408] reshape_nidx_00_c_03_3 -> ip3_id_loc_reshaped_nidx_00_c_03_3
I1028 18:21:48.296751 11865 net.cpp:150] Setting up reshape_nidx_00_c_03_3
I1028 18:21:48.296766 11865 net.cpp:157] Top shape: 512 13 1 84 (559104)
I1028 18:21:48.296773 11865 net.cpp:165] Memory required for data: 1007984640
I1028 18:21:48.296782 11865 layer_factory.hpp:77] Creating layer conv1_id_loc_nidx_00_c_03_3
I1028 18:21:48.296800 11865 net.cpp:100] Creating Layer conv1_id_loc_nidx_00_c_03_3
I1028 18:21:48.296810 11865 net.cpp:434] conv1_id_loc_nidx_00_c_03_3 <- ip3_id_loc_reshaped_nidx_00_c_03_3
I1028 18:21:48.296823 11865 net.cpp:408] conv1_id_loc_nidx_00_c_03_3 -> conv1_id_loc_nidx_00_c_03_3
I1028 18:21:48.297122 11865 net.cpp:150] Setting up conv1_id_loc_nidx_00_c_03_3
I1028 18:21:48.297140 11865 net.cpp:157] Top shape: 512 13 1 80 (532480)
I1028 18:21:48.297149 11865 net.cpp:165] Memory required for data: 1010114560
I1028 18:21:48.297163 11865 layer_factory.hpp:77] Creating layer relu_conv1_id_loc_nidx_00_c_03_3
I1028 18:21:48.297174 11865 net.cpp:100] Creating Layer relu_conv1_id_loc_nidx_00_c_03_3
I1028 18:21:48.297183 11865 net.cpp:434] relu_conv1_id_loc_nidx_00_c_03_3 <- conv1_id_loc_nidx_00_c_03_3
I1028 18:21:48.297194 11865 net.cpp:395] relu_conv1_id_loc_nidx_00_c_03_3 -> conv1_id_loc_nidx_00_c_03_3 (in-place)
I1028 18:21:48.297207 11865 net.cpp:150] Setting up relu_conv1_id_loc_nidx_00_c_03_3
I1028 18:21:48.297217 11865 net.cpp:157] Top shape: 512 13 1 80 (532480)
I1028 18:21:48.297224 11865 net.cpp:165] Memory required for data: 1012244480
I1028 18:21:48.297232 11865 layer_factory.hpp:77] Creating layer conv2_id_loc_nidx_00_c_03_3
I1028 18:21:48.297247 11865 net.cpp:100] Creating Layer conv2_id_loc_nidx_00_c_03_3
I1028 18:21:48.297256 11865 net.cpp:434] conv2_id_loc_nidx_00_c_03_3 <- conv1_id_loc_nidx_00_c_03_3
I1028 18:21:48.297268 11865 net.cpp:408] conv2_id_loc_nidx_00_c_03_3 -> conv2_id_loc_nidx_00_c_03_3
I1028 18:21:48.297552 11865 net.cpp:150] Setting up conv2_id_loc_nidx_00_c_03_3
I1028 18:21:48.297569 11865 net.cpp:157] Top shape: 512 13 1 76 (505856)
I1028 18:21:48.297577 11865 net.cpp:165] Memory required for data: 1014267904
I1028 18:21:48.297590 11865 layer_factory.hpp:77] Creating layer relu_conv2_id_loc_nidx_00_c_03_3
I1028 18:21:48.297605 11865 net.cpp:100] Creating Layer relu_conv2_id_loc_nidx_00_c_03_3
I1028 18:21:48.297615 11865 net.cpp:434] relu_conv2_id_loc_nidx_00_c_03_3 <- conv2_id_loc_nidx_00_c_03_3
I1028 18:21:48.297626 11865 net.cpp:395] relu_conv2_id_loc_nidx_00_c_03_3 -> conv2_id_loc_nidx_00_c_03_3 (in-place)
I1028 18:21:48.297636 11865 net.cpp:150] Setting up relu_conv2_id_loc_nidx_00_c_03_3
I1028 18:21:48.297646 11865 net.cpp:157] Top shape: 512 13 1 76 (505856)
I1028 18:21:48.297654 11865 net.cpp:165] Memory required for data: 1016291328
I1028 18:21:48.297662 11865 layer_factory.hpp:77] Creating layer conv3_id_loc_nidx_00_c_03_3
I1028 18:21:48.297677 11865 net.cpp:100] Creating Layer conv3_id_loc_nidx_00_c_03_3
I1028 18:21:48.297685 11865 net.cpp:434] conv3_id_loc_nidx_00_c_03_3 <- conv2_id_loc_nidx_00_c_03_3
I1028 18:21:48.297696 11865 net.cpp:408] conv3_id_loc_nidx_00_c_03_3 -> conv3_id_loc_nidx_00_c_03_3
I1028 18:21:48.297986 11865 net.cpp:150] Setting up conv3_id_loc_nidx_00_c_03_3
I1028 18:21:48.298002 11865 net.cpp:157] Top shape: 512 13 1 72 (479232)
I1028 18:21:48.298012 11865 net.cpp:165] Memory required for data: 1018208256
I1028 18:21:48.298023 11865 layer_factory.hpp:77] Creating layer reshape_conv3_id_loc_nidx_00_c_03_3
I1028 18:21:48.298037 11865 net.cpp:100] Creating Layer reshape_conv3_id_loc_nidx_00_c_03_3
I1028 18:21:48.298045 11865 net.cpp:434] reshape_conv3_id_loc_nidx_00_c_03_3 <- conv3_id_loc_nidx_00_c_03_3
I1028 18:21:48.298058 11865 net.cpp:408] reshape_conv3_id_loc_nidx_00_c_03_3 -> conv3_id_loc_reshaped_nidx_00_c_03_3
I1028 18:21:48.298105 11865 net.cpp:150] Setting up reshape_conv3_id_loc_nidx_00_c_03_3
I1028 18:21:48.298118 11865 net.cpp:157] Top shape: 512 13 1 72 (479232)
I1028 18:21:48.298126 11865 net.cpp:165] Memory required for data: 1020125184
I1028 18:21:48.298135 11865 layer_factory.hpp:77] Creating layer reshape_ip3_id_void_nidx_00_c_03_3
I1028 18:21:48.298152 11865 net.cpp:100] Creating Layer reshape_ip3_id_void_nidx_00_c_03_3
I1028 18:21:48.298161 11865 net.cpp:434] reshape_ip3_id_void_nidx_00_c_03_3 <- ip3_id_void_nidx_00_c_03_3
I1028 18:21:48.298173 11865 net.cpp:408] reshape_ip3_id_void_nidx_00_c_03_3 -> ip3_id_void_reshaped_nidx_00_c_03_3
I1028 18:21:48.298215 11865 net.cpp:150] Setting up reshape_ip3_id_void_nidx_00_c_03_3
I1028 18:21:48.298228 11865 net.cpp:157] Top shape: 512 13 1 1 (6656)
I1028 18:21:48.298234 11865 net.cpp:165] Memory required for data: 1020151808
I1028 18:21:48.298243 11865 layer_factory.hpp:77] Creating layer concat_conv_ip_nidx_00_c_03_3
I1028 18:21:48.298254 11865 net.cpp:100] Creating Layer concat_conv_ip_nidx_00_c_03_3
I1028 18:21:48.298262 11865 net.cpp:434] concat_conv_ip_nidx_00_c_03_3 <- conv3_id_loc_reshaped_nidx_00_c_03_3
I1028 18:21:48.298272 11865 net.cpp:434] concat_conv_ip_nidx_00_c_03_3 <- ip3_id_void_reshaped_nidx_00_c_03_3
I1028 18:21:48.298282 11865 net.cpp:408] concat_conv_ip_nidx_00_c_03_3 -> conv_ip3_id_loc_nidx_00_c_03_3
I1028 18:21:48.298317 11865 net.cpp:150] Setting up concat_conv_ip_nidx_00_c_03_3
I1028 18:21:48.298329 11865 net.cpp:157] Top shape: 512 13 1 73 (485888)
I1028 18:21:48.298336 11865 net.cpp:165] Memory required for data: 1022095360
I1028 18:21:48.298344 11865 layer_factory.hpp:77] Creating layer loss_id_loc_nidx_00_c_03_3
I1028 18:21:48.298357 11865 net.cpp:100] Creating Layer loss_id_loc_nidx_00_c_03_3
I1028 18:21:48.298365 11865 net.cpp:434] loss_id_loc_nidx_00_c_03_3 <- conv_ip3_id_loc_nidx_00_c_03_3
I1028 18:21:48.298375 11865 net.cpp:434] loss_id_loc_nidx_00_c_03_3 <- label_id_loc_data_2_split_0
I1028 18:21:48.298385 11865 net.cpp:408] loss_id_loc_nidx_00_c_03_3 -> loss_id_loc_nidx_00_c_03_3
I1028 18:21:48.299783 11865 net.cpp:150] Setting up loss_id_loc_nidx_00_c_03_3
I1028 18:21:48.299825 11865 net.cpp:157] Top shape: (1)
I1028 18:21:48.299835 11865 net.cpp:160]     with loss weight 1
I1028 18:21:48.299862 11865 net.cpp:165] Memory required for data: 1022095364
I1028 18:21:48.299872 11865 layer_factory.hpp:77] Creating layer conv1_nidx_01_c_03_4
I1028 18:21:48.299895 11865 net.cpp:100] Creating Layer conv1_nidx_01_c_03_4
I1028 18:21:48.299904 11865 net.cpp:434] conv1_nidx_01_c_03_4 <- ratemap_data_0_split_1
I1028 18:21:48.299918 11865 net.cpp:408] conv1_nidx_01_c_03_4 -> conv1_nidx_01_c_03_4
I1028 18:21:48.300236 11865 net.cpp:150] Setting up conv1_nidx_01_c_03_4
I1028 18:21:48.300256 11865 net.cpp:157] Top shape: 512 64 22 48 (34603008)
I1028 18:21:48.300263 11865 net.cpp:165] Memory required for data: 1160507396
I1028 18:21:48.300276 11865 layer_factory.hpp:77] Creating layer relu_conv1_nidx_01_c_03_4
I1028 18:21:48.300289 11865 net.cpp:100] Creating Layer relu_conv1_nidx_01_c_03_4
I1028 18:21:48.300298 11865 net.cpp:434] relu_conv1_nidx_01_c_03_4 <- conv1_nidx_01_c_03_4
I1028 18:21:48.300308 11865 net.cpp:395] relu_conv1_nidx_01_c_03_4 -> conv1_nidx_01_c_03_4 (in-place)
I1028 18:21:48.300321 11865 net.cpp:150] Setting up relu_conv1_nidx_01_c_03_4
I1028 18:21:48.300330 11865 net.cpp:157] Top shape: 512 64 22 48 (34603008)
I1028 18:21:48.300338 11865 net.cpp:165] Memory required for data: 1298919428
I1028 18:21:48.300345 11865 layer_factory.hpp:77] Creating layer pool1_nidx_01_c_03_4
I1028 18:21:48.300356 11865 net.cpp:100] Creating Layer pool1_nidx_01_c_03_4
I1028 18:21:48.300364 11865 net.cpp:434] pool1_nidx_01_c_03_4 <- conv1_nidx_01_c_03_4
I1028 18:21:48.300375 11865 net.cpp:408] pool1_nidx_01_c_03_4 -> pool1_nidx_01_c_03_4
I1028 18:21:48.300423 11865 net.cpp:150] Setting up pool1_nidx_01_c_03_4
I1028 18:21:48.300436 11865 net.cpp:157] Top shape: 512 64 11 24 (8650752)
I1028 18:21:48.300443 11865 net.cpp:165] Memory required for data: 1333522436
I1028 18:21:48.300451 11865 layer_factory.hpp:77] Creating layer conv2_nidx_01_c_03_4
I1028 18:21:48.300467 11865 net.cpp:100] Creating Layer conv2_nidx_01_c_03_4
I1028 18:21:48.300475 11865 net.cpp:434] conv2_nidx_01_c_03_4 <- pool1_nidx_01_c_03_4
I1028 18:21:48.300488 11865 net.cpp:408] conv2_nidx_01_c_03_4 -> conv2_nidx_01_c_03_4
I1028 18:21:48.301432 11865 net.cpp:150] Setting up conv2_nidx_01_c_03_4
I1028 18:21:48.301451 11865 net.cpp:157] Top shape: 512 128 9 22 (12976128)
I1028 18:21:48.301460 11865 net.cpp:165] Memory required for data: 1385426948
I1028 18:21:48.301471 11865 layer_factory.hpp:77] Creating layer pool2_nidx_01_c_03_4
I1028 18:21:48.301484 11865 net.cpp:100] Creating Layer pool2_nidx_01_c_03_4
I1028 18:21:48.301492 11865 net.cpp:434] pool2_nidx_01_c_03_4 <- conv2_nidx_01_c_03_4
I1028 18:21:48.301503 11865 net.cpp:408] pool2_nidx_01_c_03_4 -> pool2_nidx_01_c_03_4
I1028 18:21:48.301558 11865 net.cpp:150] Setting up pool2_nidx_01_c_03_4
I1028 18:21:48.301573 11865 net.cpp:157] Top shape: 512 128 5 11 (3604480)
I1028 18:21:48.301579 11865 net.cpp:165] Memory required for data: 1399844868
I1028 18:21:48.301587 11865 layer_factory.hpp:77] Creating layer relu_conv2_nidx_01_c_03_4
I1028 18:21:48.301599 11865 net.cpp:100] Creating Layer relu_conv2_nidx_01_c_03_4
I1028 18:21:48.301606 11865 net.cpp:434] relu_conv2_nidx_01_c_03_4 <- pool2_nidx_01_c_03_4
I1028 18:21:48.301617 11865 net.cpp:395] relu_conv2_nidx_01_c_03_4 -> pool2_nidx_01_c_03_4 (in-place)
I1028 18:21:48.301628 11865 net.cpp:150] Setting up relu_conv2_nidx_01_c_03_4
I1028 18:21:48.301638 11865 net.cpp:157] Top shape: 512 128 5 11 (3604480)
I1028 18:21:48.301645 11865 net.cpp:165] Memory required for data: 1414262788
I1028 18:21:48.301653 11865 layer_factory.hpp:77] Creating layer conv3_nidx_01_c_03_4
I1028 18:21:48.301669 11865 net.cpp:100] Creating Layer conv3_nidx_01_c_03_4
I1028 18:21:48.301678 11865 net.cpp:434] conv3_nidx_01_c_03_4 <- pool2_nidx_01_c_03_4
I1028 18:21:48.301689 11865 net.cpp:408] conv3_nidx_01_c_03_4 -> conv3_nidx_01_c_03_4
I1028 18:21:48.303300 11865 net.cpp:150] Setting up conv3_nidx_01_c_03_4
I1028 18:21:48.303333 11865 net.cpp:157] Top shape: 512 128 3 9 (1769472)
I1028 18:21:48.303340 11865 net.cpp:165] Memory required for data: 1421340676
I1028 18:21:48.303354 11865 layer_factory.hpp:77] Creating layer relu_conv3_nidx_01_c_03_4
I1028 18:21:48.303366 11865 net.cpp:100] Creating Layer relu_conv3_nidx_01_c_03_4
I1028 18:21:48.303376 11865 net.cpp:434] relu_conv3_nidx_01_c_03_4 <- conv3_nidx_01_c_03_4
I1028 18:21:48.303390 11865 net.cpp:395] relu_conv3_nidx_01_c_03_4 -> conv3_nidx_01_c_03_4 (in-place)
I1028 18:21:48.303405 11865 net.cpp:150] Setting up relu_conv3_nidx_01_c_03_4
I1028 18:21:48.303414 11865 net.cpp:157] Top shape: 512 128 3 9 (1769472)
I1028 18:21:48.303421 11865 net.cpp:165] Memory required for data: 1428418564
I1028 18:21:48.303429 11865 layer_factory.hpp:77] Creating layer ip2_rm_nidx_01_c_03_4
I1028 18:21:48.303443 11865 net.cpp:100] Creating Layer ip2_rm_nidx_01_c_03_4
I1028 18:21:48.303452 11865 net.cpp:434] ip2_rm_nidx_01_c_03_4 <- conv3_nidx_01_c_03_4
I1028 18:21:48.303464 11865 net.cpp:408] ip2_rm_nidx_01_c_03_4 -> ip2_rm_nidx_01_c_03_4
I1028 18:21:48.308642 11865 net.cpp:150] Setting up ip2_rm_nidx_01_c_03_4
I1028 18:21:48.308692 11865 net.cpp:157] Top shape: 512 128 (65536)
I1028 18:21:48.308701 11865 net.cpp:165] Memory required for data: 1428680708
I1028 18:21:48.308727 11865 layer_factory.hpp:77] Creating layer conv1_ild_nidx_01_c_03_4
I1028 18:21:48.308750 11865 net.cpp:100] Creating Layer conv1_ild_nidx_01_c_03_4
I1028 18:21:48.308760 11865 net.cpp:434] conv1_ild_nidx_01_c_03_4 <- ild_data_1_split_1
I1028 18:21:48.308776 11865 net.cpp:408] conv1_ild_nidx_01_c_03_4 -> conv1_ild_nidx_01_c_03_4
I1028 18:21:48.309082 11865 net.cpp:150] Setting up conv1_ild_nidx_01_c_03_4
I1028 18:21:48.309099 11865 net.cpp:157] Top shape: 512 64 30 48 (47185920)
I1028 18:21:48.309108 11865 net.cpp:165] Memory required for data: 1617424388
I1028 18:21:48.309118 11865 layer_factory.hpp:77] Creating layer relu_ild_conv1_nidx_01_c_03_4
I1028 18:21:48.309131 11865 net.cpp:100] Creating Layer relu_ild_conv1_nidx_01_c_03_4
I1028 18:21:48.309140 11865 net.cpp:434] relu_ild_conv1_nidx_01_c_03_4 <- conv1_ild_nidx_01_c_03_4
I1028 18:21:48.309150 11865 net.cpp:395] relu_ild_conv1_nidx_01_c_03_4 -> conv1_ild_nidx_01_c_03_4 (in-place)
I1028 18:21:48.309167 11865 net.cpp:150] Setting up relu_ild_conv1_nidx_01_c_03_4
I1028 18:21:48.309177 11865 net.cpp:157] Top shape: 512 64 30 48 (47185920)
I1028 18:21:48.309185 11865 net.cpp:165] Memory required for data: 1806168068
I1028 18:21:48.309192 11865 layer_factory.hpp:77] Creating layer pool1_ild_nidx_01_c_03_4
I1028 18:21:48.309206 11865 net.cpp:100] Creating Layer pool1_ild_nidx_01_c_03_4
I1028 18:21:48.309213 11865 net.cpp:434] pool1_ild_nidx_01_c_03_4 <- conv1_ild_nidx_01_c_03_4
I1028 18:21:48.309224 11865 net.cpp:408] pool1_ild_nidx_01_c_03_4 -> pool1_ild_nidx_01_c_03_4
I1028 18:21:48.309276 11865 net.cpp:150] Setting up pool1_ild_nidx_01_c_03_4
I1028 18:21:48.309288 11865 net.cpp:157] Top shape: 512 64 15 24 (11796480)
I1028 18:21:48.309295 11865 net.cpp:165] Memory required for data: 1853353988
I1028 18:21:48.309303 11865 layer_factory.hpp:77] Creating layer conv2_ild_nidx_01_c_03_4
I1028 18:21:48.309319 11865 net.cpp:100] Creating Layer conv2_ild_nidx_01_c_03_4
I1028 18:21:48.309327 11865 net.cpp:434] conv2_ild_nidx_01_c_03_4 <- pool1_ild_nidx_01_c_03_4
I1028 18:21:48.309339 11865 net.cpp:408] conv2_ild_nidx_01_c_03_4 -> conv2_ild_nidx_01_c_03_4
I1028 18:21:48.310281 11865 net.cpp:150] Setting up conv2_ild_nidx_01_c_03_4
I1028 18:21:48.310302 11865 net.cpp:157] Top shape: 512 128 13 22 (18743296)
I1028 18:21:48.310310 11865 net.cpp:165] Memory required for data: 1928327172
I1028 18:21:48.310322 11865 layer_factory.hpp:77] Creating layer pool2_ild_nidx_01_c_03_4
I1028 18:21:48.310333 11865 net.cpp:100] Creating Layer pool2_ild_nidx_01_c_03_4
I1028 18:21:48.310343 11865 net.cpp:434] pool2_ild_nidx_01_c_03_4 <- conv2_ild_nidx_01_c_03_4
I1028 18:21:48.310365 11865 net.cpp:408] pool2_ild_nidx_01_c_03_4 -> pool2_ild_nidx_01_c_03_4
I1028 18:21:48.310415 11865 net.cpp:150] Setting up pool2_ild_nidx_01_c_03_4
I1028 18:21:48.310428 11865 net.cpp:157] Top shape: 512 128 7 11 (5046272)
I1028 18:21:48.310436 11865 net.cpp:165] Memory required for data: 1948512260
I1028 18:21:48.310443 11865 layer_factory.hpp:77] Creating layer relu_ild_conv2_nidx_01_c_03_4
I1028 18:21:48.310454 11865 net.cpp:100] Creating Layer relu_ild_conv2_nidx_01_c_03_4
I1028 18:21:48.310462 11865 net.cpp:434] relu_ild_conv2_nidx_01_c_03_4 <- pool2_ild_nidx_01_c_03_4
I1028 18:21:48.310472 11865 net.cpp:395] relu_ild_conv2_nidx_01_c_03_4 -> pool2_ild_nidx_01_c_03_4 (in-place)
I1028 18:21:48.310482 11865 net.cpp:150] Setting up relu_ild_conv2_nidx_01_c_03_4
I1028 18:21:48.310492 11865 net.cpp:157] Top shape: 512 128 7 11 (5046272)
I1028 18:21:48.310498 11865 net.cpp:165] Memory required for data: 1968697348
I1028 18:21:48.310506 11865 layer_factory.hpp:77] Creating layer conv3_ild_nidx_01_c_03_4
I1028 18:21:48.310520 11865 net.cpp:100] Creating Layer conv3_ild_nidx_01_c_03_4
I1028 18:21:48.310528 11865 net.cpp:434] conv3_ild_nidx_01_c_03_4 <- pool2_ild_nidx_01_c_03_4
I1028 18:21:48.310540 11865 net.cpp:408] conv3_ild_nidx_01_c_03_4 -> conv3_ild_nidx_01_c_03_4
I1028 18:21:48.313104 11865 net.cpp:150] Setting up conv3_ild_nidx_01_c_03_4
I1028 18:21:48.313153 11865 net.cpp:157] Top shape: 512 128 5 9 (2949120)
I1028 18:21:48.313163 11865 net.cpp:165] Memory required for data: 1980493828
I1028 18:21:48.313175 11865 layer_factory.hpp:77] Creating layer relu_ild_conv3_nidx_01_c_03_4
I1028 18:21:48.313191 11865 net.cpp:100] Creating Layer relu_ild_conv3_nidx_01_c_03_4
I1028 18:21:48.313202 11865 net.cpp:434] relu_ild_conv3_nidx_01_c_03_4 <- conv3_ild_nidx_01_c_03_4
I1028 18:21:48.313215 11865 net.cpp:395] relu_ild_conv3_nidx_01_c_03_4 -> conv3_ild_nidx_01_c_03_4 (in-place)
I1028 18:21:48.313228 11865 net.cpp:150] Setting up relu_ild_conv3_nidx_01_c_03_4
I1028 18:21:48.313238 11865 net.cpp:157] Top shape: 512 128 5 9 (2949120)
I1028 18:21:48.313246 11865 net.cpp:165] Memory required for data: 1992290308
I1028 18:21:48.313252 11865 layer_factory.hpp:77] Creating layer ip2_ild_nidx_01_c_03_4
I1028 18:21:48.313267 11865 net.cpp:100] Creating Layer ip2_ild_nidx_01_c_03_4
I1028 18:21:48.313275 11865 net.cpp:434] ip2_ild_nidx_01_c_03_4 <- conv3_ild_nidx_01_c_03_4
I1028 18:21:48.313289 11865 net.cpp:408] ip2_ild_nidx_01_c_03_4 -> ip2_ild_nidx_01_c_03_4
I1028 18:21:48.320996 11865 net.cpp:150] Setting up ip2_ild_nidx_01_c_03_4
I1028 18:21:48.321043 11865 net.cpp:157] Top shape: 512 128 (65536)
I1028 18:21:48.321050 11865 net.cpp:165] Memory required for data: 1992552452
I1028 18:21:48.321065 11865 layer_factory.hpp:77] Creating layer concat_nidx_01_c_03_4
I1028 18:21:48.321081 11865 net.cpp:100] Creating Layer concat_nidx_01_c_03_4
I1028 18:21:48.321092 11865 net.cpp:434] concat_nidx_01_c_03_4 <- ip2_rm_nidx_01_c_03_4
I1028 18:21:48.321105 11865 net.cpp:434] concat_nidx_01_c_03_4 <- ip2_ild_nidx_01_c_03_4
I1028 18:21:48.321116 11865 net.cpp:408] concat_nidx_01_c_03_4 -> ip2_nidx_01_c_03_4
I1028 18:21:48.321154 11865 net.cpp:150] Setting up concat_nidx_01_c_03_4
I1028 18:21:48.321166 11865 net.cpp:157] Top shape: 512 256 (131072)
I1028 18:21:48.321173 11865 net.cpp:165] Memory required for data: 1993076740
I1028 18:21:48.321182 11865 layer_factory.hpp:77] Creating layer relu_ip2_nidx_01_c_03_4
I1028 18:21:48.321195 11865 net.cpp:100] Creating Layer relu_ip2_nidx_01_c_03_4
I1028 18:21:48.321203 11865 net.cpp:434] relu_ip2_nidx_01_c_03_4 <- ip2_nidx_01_c_03_4
I1028 18:21:48.321213 11865 net.cpp:395] relu_ip2_nidx_01_c_03_4 -> ip2_nidx_01_c_03_4 (in-place)
I1028 18:21:48.321224 11865 net.cpp:150] Setting up relu_ip2_nidx_01_c_03_4
I1028 18:21:48.321233 11865 net.cpp:157] Top shape: 512 256 (131072)
I1028 18:21:48.321240 11865 net.cpp:165] Memory required for data: 1993601028
I1028 18:21:48.321247 11865 layer_factory.hpp:77] Creating layer dropip2_nidx_01_c_03_4
I1028 18:21:48.321260 11865 net.cpp:100] Creating Layer dropip2_nidx_01_c_03_4
I1028 18:21:48.321269 11865 net.cpp:434] dropip2_nidx_01_c_03_4 <- ip2_nidx_01_c_03_4
I1028 18:21:48.321279 11865 net.cpp:395] dropip2_nidx_01_c_03_4 -> ip2_nidx_01_c_03_4 (in-place)
I1028 18:21:48.321307 11865 net.cpp:150] Setting up dropip2_nidx_01_c_03_4
I1028 18:21:48.321318 11865 net.cpp:157] Top shape: 512 256 (131072)
I1028 18:21:48.321326 11865 net.cpp:165] Memory required for data: 1994125316
I1028 18:21:48.321332 11865 layer_factory.hpp:77] Creating layer ip2_nidx_01_c_03_4_dropip2_nidx_01_c_03_4_0_split
I1028 18:21:48.321344 11865 net.cpp:100] Creating Layer ip2_nidx_01_c_03_4_dropip2_nidx_01_c_03_4_0_split
I1028 18:21:48.321352 11865 net.cpp:434] ip2_nidx_01_c_03_4_dropip2_nidx_01_c_03_4_0_split <- ip2_nidx_01_c_03_4
I1028 18:21:48.321362 11865 net.cpp:408] ip2_nidx_01_c_03_4_dropip2_nidx_01_c_03_4_0_split -> ip2_nidx_01_c_03_4_dropip2_nidx_01_c_03_4_0_split_0
I1028 18:21:48.321372 11865 net.cpp:408] ip2_nidx_01_c_03_4_dropip2_nidx_01_c_03_4_0_split -> ip2_nidx_01_c_03_4_dropip2_nidx_01_c_03_4_0_split_1
I1028 18:21:48.321416 11865 net.cpp:150] Setting up ip2_nidx_01_c_03_4_dropip2_nidx_01_c_03_4_0_split
I1028 18:21:48.321427 11865 net.cpp:157] Top shape: 512 256 (131072)
I1028 18:21:48.321435 11865 net.cpp:157] Top shape: 512 256 (131072)
I1028 18:21:48.321442 11865 net.cpp:165] Memory required for data: 1995173892
I1028 18:21:48.321449 11865 layer_factory.hpp:77] Creating layer ip3_id_void_nidx_01_c_03_4
I1028 18:21:48.321463 11865 net.cpp:100] Creating Layer ip3_id_void_nidx_01_c_03_4
I1028 18:21:48.321471 11865 net.cpp:434] ip3_id_void_nidx_01_c_03_4 <- ip2_nidx_01_c_03_4_dropip2_nidx_01_c_03_4_0_split_0
I1028 18:21:48.321481 11865 net.cpp:408] ip3_id_void_nidx_01_c_03_4 -> ip3_id_void_nidx_01_c_03_4
I1028 18:21:48.321643 11865 net.cpp:150] Setting up ip3_id_void_nidx_01_c_03_4
I1028 18:21:48.321658 11865 net.cpp:157] Top shape: 512 13 (6656)
I1028 18:21:48.321666 11865 net.cpp:165] Memory required for data: 1995200516
I1028 18:21:48.321677 11865 layer_factory.hpp:77] Creating layer ip3_id_loc_nidx_01_c_03_4
I1028 18:21:48.321691 11865 net.cpp:100] Creating Layer ip3_id_loc_nidx_01_c_03_4
I1028 18:21:48.321698 11865 net.cpp:434] ip3_id_loc_nidx_01_c_03_4 <- ip2_nidx_01_c_03_4_dropip2_nidx_01_c_03_4_0_split_1
I1028 18:21:48.321708 11865 net.cpp:408] ip3_id_loc_nidx_01_c_03_4 -> ip3_id_loc_nidx_01_c_03_4
I1028 18:21:48.324316 11865 net.cpp:150] Setting up ip3_id_loc_nidx_01_c_03_4
I1028 18:21:48.324353 11865 net.cpp:157] Top shape: 512 1144 (585728)
I1028 18:21:48.324362 11865 net.cpp:165] Memory required for data: 1997543428
I1028 18:21:48.324373 11865 layer_factory.hpp:77] Creating layer reshape_nidx_01_c_03_4
I1028 18:21:48.324391 11865 net.cpp:100] Creating Layer reshape_nidx_01_c_03_4
I1028 18:21:48.324401 11865 net.cpp:434] reshape_nidx_01_c_03_4 <- ip3_id_loc_nidx_01_c_03_4
I1028 18:21:48.324414 11865 net.cpp:408] reshape_nidx_01_c_03_4 -> ip3_id_loc_reshaped_nidx_01_c_03_4
I1028 18:21:48.324451 11865 net.cpp:150] Setting up reshape_nidx_01_c_03_4
I1028 18:21:48.324462 11865 net.cpp:157] Top shape: 512 13 1 88 (585728)
I1028 18:21:48.324470 11865 net.cpp:165] Memory required for data: 1999886340
I1028 18:21:48.324476 11865 layer_factory.hpp:77] Creating layer conv1_id_loc_nidx_01_c_03_4
I1028 18:21:48.324494 11865 net.cpp:100] Creating Layer conv1_id_loc_nidx_01_c_03_4
I1028 18:21:48.324503 11865 net.cpp:434] conv1_id_loc_nidx_01_c_03_4 <- ip3_id_loc_reshaped_nidx_01_c_03_4
I1028 18:21:48.324515 11865 net.cpp:408] conv1_id_loc_nidx_01_c_03_4 -> conv1_id_loc_nidx_01_c_03_4
I1028 18:21:48.324787 11865 net.cpp:150] Setting up conv1_id_loc_nidx_01_c_03_4
I1028 18:21:48.324802 11865 net.cpp:157] Top shape: 512 13 1 84 (559104)
I1028 18:21:48.324810 11865 net.cpp:165] Memory required for data: 2002122756
I1028 18:21:48.324820 11865 layer_factory.hpp:77] Creating layer relu_conv1_id_loc_nidx_01_c_03_4
I1028 18:21:48.324843 11865 net.cpp:100] Creating Layer relu_conv1_id_loc_nidx_01_c_03_4
I1028 18:21:48.324851 11865 net.cpp:434] relu_conv1_id_loc_nidx_01_c_03_4 <- conv1_id_loc_nidx_01_c_03_4
I1028 18:21:48.324862 11865 net.cpp:395] relu_conv1_id_loc_nidx_01_c_03_4 -> conv1_id_loc_nidx_01_c_03_4 (in-place)
I1028 18:21:48.324872 11865 net.cpp:150] Setting up relu_conv1_id_loc_nidx_01_c_03_4
I1028 18:21:48.324882 11865 net.cpp:157] Top shape: 512 13 1 84 (559104)
I1028 18:21:48.324888 11865 net.cpp:165] Memory required for data: 2004359172
I1028 18:21:48.324895 11865 layer_factory.hpp:77] Creating layer conv2_id_loc_nidx_01_c_03_4
I1028 18:21:48.324909 11865 net.cpp:100] Creating Layer conv2_id_loc_nidx_01_c_03_4
I1028 18:21:48.324918 11865 net.cpp:434] conv2_id_loc_nidx_01_c_03_4 <- conv1_id_loc_nidx_01_c_03_4
I1028 18:21:48.324928 11865 net.cpp:408] conv2_id_loc_nidx_01_c_03_4 -> conv2_id_loc_nidx_01_c_03_4
I1028 18:21:48.325197 11865 net.cpp:150] Setting up conv2_id_loc_nidx_01_c_03_4
I1028 18:21:48.325212 11865 net.cpp:157] Top shape: 512 13 1 80 (532480)
I1028 18:21:48.325219 11865 net.cpp:165] Memory required for data: 2006489092
I1028 18:21:48.325229 11865 layer_factory.hpp:77] Creating layer relu_conv2_id_loc_nidx_01_c_03_4
I1028 18:21:48.325240 11865 net.cpp:100] Creating Layer relu_conv2_id_loc_nidx_01_c_03_4
I1028 18:21:48.325248 11865 net.cpp:434] relu_conv2_id_loc_nidx_01_c_03_4 <- conv2_id_loc_nidx_01_c_03_4
I1028 18:21:48.325258 11865 net.cpp:395] relu_conv2_id_loc_nidx_01_c_03_4 -> conv2_id_loc_nidx_01_c_03_4 (in-place)
I1028 18:21:48.325268 11865 net.cpp:150] Setting up relu_conv2_id_loc_nidx_01_c_03_4
I1028 18:21:48.325275 11865 net.cpp:157] Top shape: 512 13 1 80 (532480)
I1028 18:21:48.325283 11865 net.cpp:165] Memory required for data: 2008619012
I1028 18:21:48.325289 11865 layer_factory.hpp:77] Creating layer conv3_id_loc_nidx_01_c_03_4
I1028 18:21:48.325304 11865 net.cpp:100] Creating Layer conv3_id_loc_nidx_01_c_03_4
I1028 18:21:48.325310 11865 net.cpp:434] conv3_id_loc_nidx_01_c_03_4 <- conv2_id_loc_nidx_01_c_03_4
I1028 18:21:48.325322 11865 net.cpp:408] conv3_id_loc_nidx_01_c_03_4 -> conv3_id_loc_nidx_01_c_03_4
I1028 18:21:48.325588 11865 net.cpp:150] Setting up conv3_id_loc_nidx_01_c_03_4
I1028 18:21:48.325604 11865 net.cpp:157] Top shape: 512 13 1 76 (505856)
I1028 18:21:48.325611 11865 net.cpp:165] Memory required for data: 2010642436
I1028 18:21:48.325621 11865 layer_factory.hpp:77] Creating layer relu_conv3_id_loc_nidx_01_c_03_4
I1028 18:21:48.325631 11865 net.cpp:100] Creating Layer relu_conv3_id_loc_nidx_01_c_03_4
I1028 18:21:48.325640 11865 net.cpp:434] relu_conv3_id_loc_nidx_01_c_03_4 <- conv3_id_loc_nidx_01_c_03_4
I1028 18:21:48.325649 11865 net.cpp:395] relu_conv3_id_loc_nidx_01_c_03_4 -> conv3_id_loc_nidx_01_c_03_4 (in-place)
I1028 18:21:48.325660 11865 net.cpp:150] Setting up relu_conv3_id_loc_nidx_01_c_03_4
I1028 18:21:48.325669 11865 net.cpp:157] Top shape: 512 13 1 76 (505856)
I1028 18:21:48.325675 11865 net.cpp:165] Memory required for data: 2012665860
I1028 18:21:48.325681 11865 layer_factory.hpp:77] Creating layer conv4_id_loc_nidx_01_c_03_4
I1028 18:21:48.325695 11865 net.cpp:100] Creating Layer conv4_id_loc_nidx_01_c_03_4
I1028 18:21:48.325703 11865 net.cpp:434] conv4_id_loc_nidx_01_c_03_4 <- conv3_id_loc_nidx_01_c_03_4
I1028 18:21:48.325713 11865 net.cpp:408] conv4_id_loc_nidx_01_c_03_4 -> conv4_id_loc_nidx_01_c_03_4
I1028 18:21:48.325973 11865 net.cpp:150] Setting up conv4_id_loc_nidx_01_c_03_4
I1028 18:21:48.325987 11865 net.cpp:157] Top shape: 512 13 1 72 (479232)
I1028 18:21:48.325994 11865 net.cpp:165] Memory required for data: 2014582788
I1028 18:21:48.326004 11865 layer_factory.hpp:77] Creating layer reshape_conv4_id_loc_nidx_01_c_03_4
I1028 18:21:48.326015 11865 net.cpp:100] Creating Layer reshape_conv4_id_loc_nidx_01_c_03_4
I1028 18:21:48.326023 11865 net.cpp:434] reshape_conv4_id_loc_nidx_01_c_03_4 <- conv4_id_loc_nidx_01_c_03_4
I1028 18:21:48.326035 11865 net.cpp:408] reshape_conv4_id_loc_nidx_01_c_03_4 -> conv4_id_loc_reshaped_nidx_01_c_03_4
I1028 18:21:48.326076 11865 net.cpp:150] Setting up reshape_conv4_id_loc_nidx_01_c_03_4
I1028 18:21:48.326093 11865 net.cpp:157] Top shape: 512 13 1 72 (479232)
I1028 18:21:48.326100 11865 net.cpp:165] Memory required for data: 2016499716
I1028 18:21:48.326108 11865 layer_factory.hpp:77] Creating layer reshape_ip3_id_void_nidx_01_c_03_4
I1028 18:21:48.326122 11865 net.cpp:100] Creating Layer reshape_ip3_id_void_nidx_01_c_03_4
I1028 18:21:48.326130 11865 net.cpp:434] reshape_ip3_id_void_nidx_01_c_03_4 <- ip3_id_void_nidx_01_c_03_4
I1028 18:21:48.326141 11865 net.cpp:408] reshape_ip3_id_void_nidx_01_c_03_4 -> ip3_id_void_reshaped_nidx_01_c_03_4
I1028 18:21:48.326171 11865 net.cpp:150] Setting up reshape_ip3_id_void_nidx_01_c_03_4
I1028 18:21:48.326181 11865 net.cpp:157] Top shape: 512 13 1 1 (6656)
I1028 18:21:48.326189 11865 net.cpp:165] Memory required for data: 2016526340
I1028 18:21:48.326195 11865 layer_factory.hpp:77] Creating layer concat_conv_ip_nidx_01_c_03_4
I1028 18:21:48.326205 11865 net.cpp:100] Creating Layer concat_conv_ip_nidx_01_c_03_4
I1028 18:21:48.326213 11865 net.cpp:434] concat_conv_ip_nidx_01_c_03_4 <- conv4_id_loc_reshaped_nidx_01_c_03_4
I1028 18:21:48.326223 11865 net.cpp:434] concat_conv_ip_nidx_01_c_03_4 <- ip3_id_void_reshaped_nidx_01_c_03_4
I1028 18:21:48.326233 11865 net.cpp:408] concat_conv_ip_nidx_01_c_03_4 -> conv_ip3_id_loc_nidx_01_c_03_4
I1028 18:21:48.326263 11865 net.cpp:150] Setting up concat_conv_ip_nidx_01_c_03_4
I1028 18:21:48.326273 11865 net.cpp:157] Top shape: 512 13 1 73 (485888)
I1028 18:21:48.326280 11865 net.cpp:165] Memory required for data: 2018469892
I1028 18:21:48.326288 11865 layer_factory.hpp:77] Creating layer loss_id_loc_nidx_01_c_03_4
I1028 18:21:48.326300 11865 net.cpp:100] Creating Layer loss_id_loc_nidx_01_c_03_4
I1028 18:21:48.326308 11865 net.cpp:434] loss_id_loc_nidx_01_c_03_4 <- conv_ip3_id_loc_nidx_01_c_03_4
I1028 18:21:48.326316 11865 net.cpp:434] loss_id_loc_nidx_01_c_03_4 <- label_id_loc_data_2_split_1
…
